demos/TensorFlow2TensorRTDemo/Cpp/sample_mnist_data/simple_nn.onnx (onnx, 408725 bytes, 4 tensors)

StatefulPartitionedCall/sequential/dense_1/MatMul/ReadVariableOp:0 f4 [128, 10]
00000000: 9b73 e3be df86 10bf a1fd 9fbe 5f68 833e
00000010: 92b8 dbbe a13c b63e b19e bc3d ea2a 65bd
00000020: 9dda 343e 5260 b2bd 5ded cdbe 25d0 8b3d
00000030: 6331 8a3e ea43 5fbe 01d7 72be 983f 3c3e
00000040: 236d 3f3e bb7d 19bf dbf7 153e 9873 abbd
00000050: 7cac af3e 878b 1e3e 1fb9 973e d331 0b3d
00000060: 99a8 c5be 0f57 05bf 0bf8 a4be 3d2b 013e
00000070: 1578 b83d 4594 1c3e 26af e5bd be1b 9ebe
00000080: 51b1 37be 2a5b 38be 1d65 6c3e 14e0 e03d
00000090: 7a26 543e 4998 a73e b018 ebbe 5ddf 44bf
000000a0: e13f eebd 5b95 5c3e d127 7f3e de93 a83e
000000b0: c113 afbe 5873 953e 1eed fcbe 13ac 88be
000000c0: 1c6a b1be 2f22 8dbc 3f05 d1bc d1d2 1f3e
000000d0: ec94 6a3e de10 343e 3c6c 2fbe 25cd ccbe
000000e0: 0a9c 5dbe ed12 63be 085c 343e 1413 dd3d
000000f0: f182 c9be c03e 2f3e 311f 053e e10a bbbc
00000100: 078e 69be 5407 88bc cf98 0b3e c417 b13c
00000110: 05ad 023e b4b2 0ebf 4c6e 24bf e28c ad3e
00000120: 941d d13e 4542 f8bd 9afa c2be 569e 1cbf
00000130: fdf5 873d d081 073e a315 923d 522d f2be
00000140: dad8 293e 3788 bebe 8b9f 1cbe 0d6f 833d
00000150: 8314 e63d 06ce 4f3d 081a 3e3e f933 90bd
00000160: 1a37 bb3d 7544 55bd 6419 babe 7957 813e
00000170: 79f4 98be cfe3 e53e 4c3b fdbd 3b8f 52bc
00000180: de05 2c3e 668c 743e a24e d4be 38d2 65ba
00000190: 4224 26be d8fb bcbe 38be 4c3e b4ca 223e
000001a0: 9b53 093e 74bb e33d cf99 15bf 0240 8b3d
000001b0: 7dc0 563e 5c36 2f3e fcfa 723e 0853 7b3e
000001c0: 2bb9 ae3d 3a75 ae3d 3c1d 37bf 2eef a63e
000001d0: 8e23 0ebe 6488 46be ebb7 f1be 473c babe
000001e0: b3c2 aebe 77d4 e7be 5218 bebe 2e67 413e
000001f0: 1f3c b23e fc82 863e 3575 86be 7890 f7be
00000200: 9e38 653e d6bb 533e e465 4abe d2f0 26bf
00000210: 4e51 91bd b819 02be 018c cf3d cdfb dbbd
00000220: db76 8c3e 131e 49be 9001 b9bd de4f 6d3e
00000230: 1c41 d7bd 5e53 edbd 31e7 48bd d73a 01be
00000240: 2859 e53d 3d22 a5bd cee2 e2bd 6730 00be
00000250: ca4d aa3d cc63 cf3d ceda 813d 5812 8b3c
00000260: 69bd 2dbf d23d e33c c44f 27bd b08f eb3c
00000270: 0c45 243e 6d66 dbbd e732 833d 674f eebe
00000280: 186a ea3d 017d 033e a824 873e b06f 43be
00000290: 9519 813d bb98 2d3e 4e5b 6b3e 689b 66bd
000002a0: 1fd5 04bc 0af7 23bf ab78 37bf 9b22 10be
000002b0: c983 efbe 2690 663e dc95 403c 707b 393e
000002c0: 856f 37bf 826d 55bd a7fa 04be bd56 423e
000002d0: 9aa0 f1be ef88 823e 7c64 ce3e 5c5c 36be
000002e0: 6cff 86be dfa4 6ebb 774a 6bbc e26e 623e
000002f0: 5938 563e 666c 3abf 547f 86be 3110 423e
00000300: 77af 90be 034e 963d 36e6 8cbd 2c48 403e
00000310: 3eb4 653e 608a 45be 07ad fcbe e0d1 613e
00000320: 0c0b 32be e2a2 92be 156a 423e 446d eaba
00000330: 1662 b6be 85d6 9f3d 245e 1a3e 9fd0 ef3d
00000340: ba91 69be 2b4f b4be fce7 d9be cdc4 733e
00000350: d3ac 783e 32d7 373e 6331 28bf ab31 81bd
00000360: 940e bdbe aa29 a03e e7e7 c3be 81ec 8bbf
00000370: b0ea c8be 6fbe 06be c6fc 8dbe 0c03 c93c
00000380: 797c cabc 6659 98be d9b8 2dbe 7be1 853e
00000390: a45b bbbe c7f3 793e 8789 e439 e753 293e
000003a0: d9b0 c9be decb a53d 0a19 973c 13b8 d3be
000003b0: 0b8d afbd 8a1f dcbd 4680 5f3e f8e9 4b3e
000003c0: 53c6 0fbe b7ee c0be 347a e2bc 726f b4bc
000003d0: 283f 603e 263a 66be 1a13 01bf 9d50 3c3e
000003e0: a60e 523d b0cf 583e af02 dcbe 8e00 0b3c
000003f0: d0a2 3d3e a6eb 843e f89f 34bf 6b79 3dbe
-0.44424137 -0.56455797 -0.3124819 0.25665566 -0.42914253 0.3559313 0.092099555 -0.05594913
0.1766152 -0.08709778 -0.40220156 0.0682681 0.26990804 -0.21803251 -0.2371483 0.18383634
0.18693976 -0.59957474 0.1464533 -0.08371657 0.34311283 0.15482913 0.29633424 0.033983063
-0.38605192 -0.52085966 -0.32220492 0.1261415 0.09007279 0.15290935 -0.112150475 -0.3088054
-0.17938735 -0.18003526 0.23085447 0.109802395 0.20717803 0.32733372 -0.45917273 -0.76903325
-0.11633278 0.2154135 0.24917533 0.32925314 -0.3419476 0.29189563 -0.49399656 -0.26693782
-0.34651268 -0.017228214 -0.025515197 0.15607764 0.22908372 0.1758456 -0.17131132 -0.40000263
-0.21641555 -0.22175188 0.17613232 0.107946545 -0.39357713 0.17113781 0.1300018 -0.022832336
-0.22808085 -0.016605057 0.1363251 0.021617778 0.12761314 -0.5574143 -0.642308 0.33896548
0.4084288 -0.12122015 -0.3808182 -0.611791 0.066387154 0.13233113 0.07133033 -0.47300202
0.16586629 -0.372133 -0.15295236 0.06417666 0.11234381 0.05073359 0.18564618 -0.07041163
0.09141369 -0.05206724 -0.36347497 0.2526205 -0.29874018 0.44900367 -0.123648256 -0.012851532
0.16799113 0.23881683 -0.41466242 -0.0008766982 -0.16224769 -0.36910892 0.19994438 0.15897638
0.13410799 0.11119738 -0.5843782 0.06799318 0.20971866 0.1711058 0.23728555 0.24543393
0.08531412 0.08518453 -0.71528983 0.32604355 -0.1388075 -0.19387966 -0.4721063 -0.36374113
-0.3413292 -0.45279285 -0.3712793 0.18887016 0.34811494 0.26271808 -0.26261297 -0.48352408
0.22384879 0.20677122 -0.1976543 -0.6521121 -0.07095586 -0.12705123 0.101341255 -0.107413866
0.2743443 -0.19640379 -0.09033501 0.23174998 -0.105104655 -0.11588167 -0.049048606 -0.12620102
0.11198646 -0.08063171 -0.11078416 -0.12518464 0.08315618 0.101264566 0.06340562 0.01697652
-0.6786714 0.02773944 -0.040847555 0.028755039 0.16041964 -0.107128955 0.06406193 -0.46544954
0.11446017 0.12840654 0.26395154 -0.19085574 0.063037075 0.16952793 0.22984049 -0.05630055
-0.008107453 -0.64048827 -0.716685 -0.14075701 -0.46780232 0.22515926 0.011754479 0.18113494
-0.7165454 -0.052106388 -0.12986241 0.189784 -0.47192842 0.25495097 0.40311038 -0.1780867
-0.26366746 -0.0036414189 -0.0143610155 0.22112611 0.20919932 -0.7282165 -0.2626902 0.18951489
-0.2825887 0.07339098 -0.06879847 0.18777531 0.22432038 -0.19291067 -0.4935076 0.22052717
-0.17387027 -0.28639895 0.1898578 -0.0017885347 -0.3562171 0.07804588 0.15074974 0.11709713
-0.22809497 -0.3521665 -0.42559803 0.23805542 0.24284677 0.17953184 -0.6570036 -0.063083015
-0.36925185 0.31281787 -0.38262865 -1.093155 -0.39241552 -0.13158582 -0.27731913 0.024537586
-0.024717556 -0.29755706 -0.16965045 0.2614859 -0.36593354 0.244094 0.00043590015 0.16535912
-0.39392737 0.08095525 0.018444557 -0.41351375 -0.08571824 -0.10748203 0.21826276 0.19913471
-0.14040498 -0.37682125 -0.027646162 -0.022025798 0.21899092 -0.2248312 -0.5041977 0.18390127
0.0512835 0.21172976 -0.42970797 0.008484019 0.1851914 0.25961035 -0.7055659 -0.18503349

StatefulPartitionedCall/sequential/dense_1/BiasAdd/ReadVariableOp:0 f4 [10]
00000000: 44d6 d3bd b6da 103d 7015 89bb 2d75 20be
00000010: be11 ae3d eabe 6a3d 5c85 adbd 6adf c4bc
00000020: 648b 023e a831 203b
-0.10343602 0.03536483 -0.0041834638 -0.15669699 0.08499478 0.057310976 -0.08472702 -0.024032313
0.12748486 0.002444366

StatefulPartitionedCall/sequential/dense/MatMul/ReadVariableOp:0 f4 [784, 128]
00000000: 1fc8 13bd b657 623d 800f 9e3c 175d 12bd
00000010: 3430 fb3c 3579 14bd 0e83 353d 0616 713d
00000020: 81df 93bd f259 07bd 781b 67bd 35fb 893d
00000030: b947 98bd 9098 64bc 805b d0bc 4d95 803d
00000040: 802e 8eba 8ab2 7dbd b23c 743d 1065 de3c
00000050: e6da 603d d1e7 2cbd 700e 8fbb 5475 903c
00000060: 2656 7cbd bb37 893d cdce 0dbd 406e 57bd
00000070: 8f61 903d bb1e 8a3d 404a b33a 7078 d9bb
00000080: d8de bb3c 7120 863d d0c4 153d c081 703c
00000090: e02c aa3b cccf a3bd 0fed 88bd 1e2b 653d
000000a0: 006e 9cbd 00cc ccba bcdf aa3c 88c8 303c
000000b0: 48c2 193c 5e83 98bc 3877 653c fd79 4fbd
000000c0: 1858 a4bd 0abf 5ebd 4200 443d 2ec5 81bd
000000d0: 336d 3ebd a8f8 9abd 82fe 763d 1e69 553d
000000e0: 2ff5 82bd c28e 7bbd 549b bdbc 249a b23c
000000f0: d317 96bd 2a0e c7bc 9890 a5bd 10ad 24bc
00000100: 1889 693c 5a20 503d 800c 233d 49d6 3cbd
00000110: 694d a53d 2081 0bbd 229f cbbc ced3 663d
00000120: c3c0 953d 261a 563d 102d d7bb 4cc2 163d
00000130: df48 72bd 3897 d93c 54c2 09bd 1a62 6b3d
00000140: 001a 233c b423 8abd 01ea a4bd e0a8 d3bc
00000150: c407 f3bc f878 673c 9be4 39bd a8ca 6dbc
00000160: 34df 62bd f041 a0bd 8ad7 34bd 845c db3c
00000170: 971a 90bd 0580 9b3d f880 16bc 5010 71bd
00000180: aad8 59bd 7e08 9dbc c6a3 4e3d f0f6 d1bb
00000190: 1d23 9c3d 943d 1c3d b946 a23d f65f 9ebc
000001a0: c672 713d a0c2 5f3b c073 f63a 119c 8f3d
000001b0: 00e5 7c3b f54f 2cbd 246f a03c 7e08 6a3d
000001c0: 94f9 9dbd 105a 61bc a15a 4dbd a0ce 4ebb
000001d0: 5fe2 9f3d c19c 34bd 3117 a5bd 0893 493c
000001e0: 21c6 873d b6ec 78bd 286b 7a3c 48b4 323d
000001f0: 58fd aa3c 8803 bf3c 005c 9d3a 6f01 9c3d
00000200: a72c 823d 80dc 41bd f8f8 993c 328d 483d
00000210: 4030 bb3a e39b 8d3d 5658 253d e140 9b3d
00000220: 0053 6dba b216 6c3d c975 9f3d 9ade 7d3d
00000230: 8089 f33a 56e9 3e3d 0adc 353d a035 e5bb
00000240: 0a54 723d b09e 513c f002 4c3c 2242 293d
00000250: 7d0d a53d a26f 013d 0497 303d 5bfa 9b3d
00000260: 9e24 353d 00be 36b9 6f91 9e3d 2ad6 9fbc
00000270: 45e2 9c3d 4dca 8f3d faf6 3c3d 14e9 62bd
00000280: 20f3 b6bb 9aa0 9ebd 7006 43bd 0838 37bd
00000290: 0399 873d d807 c1bc cc72 223d 58ab 73bd
000002a0: 9897 6fbd 3089 103d 98da 373c a047 0c3b
000002b0: ec6d 273d a35a 44bd e0f2 ed3c a8df ad3c
000002c0: 10b2 1ebd 063a 633d 6894 e0bc cad5 0fbd
000002d0: 3197 98bd f402 f23c 151e 813d 2a47 693d
000002e0: 80d3 c7ba 6c1d 5abd e062 3d3c c224 97bd
000002f0: 6662 63bd b21b 6c3d e623 3f3d e4fd f13c
00000300: d2fe 743d e73d 943d 9057 913b 3846 043d
00000310: 6517 a23d 18f7 c93c feca 553d e30b 29bd
00000320: 80bf 1f3a 0444 c83c e1f6 96bd fba6 39bd
00000330: 463a 80bd 398c 843d 288d 363c 82d4 123d
00000340: 7ecc d8bc b848 babc c7d6 843d 85a1 02bd
00000350: 60fc 31bb a040 2e3c c029 d13b 5619 e7bc
00000360: 3df7 953d ddd4 2dbd 3c31 163d 4e91 56bd
00000370: 00b6 23ba 52ac 68bd 7858 f93c 98c9 8ebc
00000380: a0ef 223b dcec 82bd 0cc9 6bbd 04f1 ce3c
00000390: 20ec 57bc a050 d5bb 4ab4 5abd 7672 443d
000003a0: ca8f 043d b834 8ebc 9d26 97bd 4733 823d
000003b0: 23d9 9e3d 164d 67bd c42d ccbc 4820 4fbd
000003c0: ccc0 a2bd dcb7 77bd fafb 92bd eed7 63bd
000003d0: 6093 d73b 4d19 903d 06a2 b4bc bc31 313d
000003e0: 7720 883d fa1c 593d 3db8 a43d 8251 4b3d
000003f0: b77b 8f3d 74ba 33bd 9274 6f3d 9b90 9c3d
-0.036079522 0.05525943 0.0192945 -0.03573331 0.030662633 -0.036248405 0.044314437 0.058858894
-0.07220364 -0.033044763 -0.05642268 0.06737367 -0.07435555 -0.013952389 -0.025434256 0.06278477
-0.0010847598 -0.061937846 0.059628196 0.0271478 0.054896258 -0.042213265 -0.0043657348 0.017634071
-0.061605595 0.06700083 -0.03462105 -0.052595377 0.07049858 0.067441426 0.0013678744 -0.0066366717
0.022933409 0.065491565 0.03656465 0.014679372 0.005193338 -0.079986185 -0.0668584 0.055949323
-0.07638168 -0.0015624762 0.020858638 0.010789998 0.009384699 -0.018617328 0.014005475 -0.050653446
-0.08024615 -0.054381408 0.04785181 -0.06336437 -0.04649086 -0.07566959 0.06030131 0.0521022
-0.06394421 -0.06141544 -0.023145355 0.021802016 -0.07328763 -0.024298746 -0.0808422 -0.010051027
0.014253877 0.050812103 0.039806843 -0.046102796 0.080714054 -0.03405869 -0.024856154 0.056354336
0.07312157 0.05227103 -0.006566651 0.03680639 -0.059151527 0.026561365 -0.03363259 0.057466604
0.009954929 -0.06745091 -0.08052445 -0.025837362 -0.029666789 0.014127962 -0.04538403 -0.014513649
-0.055388644 -0.078250766 -0.044150867 0.026777513 -0.070363216 0.07592777 -0.009186022 -0.058853447
-0.053185143 -0.019169088 0.050449155 -0.006407611 0.07623885 0.038144663 0.079236455 -0.019332867
0.058947347 0.0034143105 0.0018802807 0.07012189 0.0038588643 -0.04206844 0.019584246 0.057137005
-0.07713619 -0.013754383 -0.05013526 -0.0031556264 0.07806849 -0.044094805 -0.08061064 0.012303121
0.06629587 -0.06077262 0.015284337 0.04362896 0.020872757 0.023317114 0.0012005568 0.07617461
0.06356173 -0.047329426 0.018795475 0.04896278 0.0014281347 0.06914499 0.040367447 0.07580734
-0.00090532005 0.05763883 0.077861376 0.061979868 0.0018580407 0.046609245 0.0443993 -0.006994918
0.059162177 0.012794182 0.012451872 0.041322835 0.08059213 0.031600602 0.04311277 0.07616111
0.044224374 -0.00017427653 0.07742583 -0.019511301 0.07660345 0.07021008 0.046133973 -0.055398062
-0.005583182 -0.07745476 -0.04761356 -0.04473117 0.066209815 -0.02356331 0.03966026 -0.059489578
-0.05849418 0.035287082 0.01122155 0.0021404997 0.040876314 -0.047938 0.029046476 0.021224812
-0.038744032 0.055475257 -0.027414516 -0.035115995 -0.074507125 0.029542424 0.06304566 0.056952633
-0.0015245527 -0.053250715 0.011559218 -0.07380058 -0.055513762 0.0576436 0.046665095 0.02954001
0.059813328 0.072383694 0.004435487 0.03229353 0.079146184 0.024653956 0.05219554 -0.0412711
0.00060939044 0.024446495 -0.07371307 -0.04532526 -0.06261115 0.06472058 0.011142053 0.035847194
-0.026464697 -0.022739753 0.06486278 -0.03189232 -0.0027158484 0.010635525 0.006383151 -0.028210323
0.073225476 -0.04243933 0.036668047 -0.052384667 -0.00062450767 -0.056804962 0.030437693 -0.017430112
0.0024862066 -0.063928336 -0.05756478 0.02526141 -0.013178855 -0.0065098554 -0.053394593 0.04796072
0.03236369 -0.017359123 -0.07380412 0.063574366 0.07756259 -0.05647 -0.024924167 -0.050567895
-0.07946929 -0.060478076 -0.07176967 -0.05562585 0.0065788478 0.07036076 -0.022049915 0.04326032
0.06646817 0.05300615 0.08042953 0.04963828 0.070060186 -0.043878987 0.05846078 0.07644769

StatefulPartitionedCall/sequential/dense/BiasAdd/ReadVariableOp:0 f4 [128]
00000000: efbd 0a3b 9527 c63d 7503 8abd 0aa7 053e
00000010: afae 053e 5233 26be 3e5e d43d 3bac c53d
00000020: a288 10be cff5 7b3c fedb 3cbd 4ff1 783e
00000030: 8100 e1bd 56ef 18bd 14b1 babc f355 d6bd
00000040: 6e9e 473e 0735 6abc 468a 5d3d cc21 903d
00000050: 831c 133e 3ea1 a13c 0216 cf3b 6de7 22be
00000060: 0619 7fbc 1a20 2abe 0172 793c f157 033d
00000070: d40e 403e df71 32bb 56c1 b0bd 2f56 113e
00000080: b0be f03d 3be0 eebd 0904 7d3d 9d0b bc3c
00000090: f0ba aebc 6ba0 45bd 4dc2 0d3d f212 e83d
000000a0: d3e0 b73d 1070 0a3e f5f5 f0bd 3ccb 333d
000000b0: 2f70 b73d 7849 05bb 868e 32bd 8a9f 083e
000000c0: a910 8f3d 984c 0abd 37cb 8b3d 4252 053e
000000d0: 715b 54bd 906e a2bd c3b6 4abe 20c8 96bd
000000e0: 8e24 26bd c056 933d 1f2b 5b3e aef6 f9bd
000000f0: 3dc4 a8bd 1dab b73c e604 84bd 0fa1 abbd
00000100: 14ad ae3d 5ee6 b73c 6df3 32be 5b36 f6bd
00000110: c49d 853d d701 40be 4201 9b3d 644a 373e
00000120: 629d dc3d a3d2 873d ffd6 0d3e 9b05 abbd
00000130: f000 353e bd5e 693d 4b34 99bd 74b9 2cbd
00000140: 8285 1cbe f8e5 443d 4c28 0e3b c0e4 0e3c
00000150: 779a 5d3e 0cee c43c 93ad 8abd 1433 ffbd
00000160: d984 e33d a7d6 21be a530 f73d d999 7a3d
00000170: 41bf ba3d 22fd 15be ab9d cbbc e413 72bd
00000180: 6458 8e3d 405e 6dbc efb8 793d 0e72 353e
00000190: f7a1 c03d 2911 9c3e 60f2 c53d 5d2f b3bd
000001a0: a314 10be efd8 c93d 3b1b 8b3d f3df 98bd
000001b0: 5f4e 43bd 4fc7 ce3d 1dd3 01be 7283 193c
000001c0: 04ad c03d b3e7 6a3d 523f 04be ba58 ff3c
000001d0: 6729 393c bbea b63d fe5b e63c 6c61 28bd
000001e0: b6c8 a8bc 42d7 2e3d e032 0d3e 59b2 3f3e
000001f0: a2d0 a0bd 1a59 2ebe ddae 2a3e 0e20 8abd
0.0021170338 0.096755184 -0.067389406 0.13052002 0.13054918 -0.16230515 0.10369538 0.09651991
-0.14114621 0.01537843 -0.04610824 0.24310802 -0.10986424 -0.037337624 -0.022789516 -0.10465612
0.1949403 -0.014294869 0.054086946 0.07037696 0.14366345 0.019730207 0.006319762 -0.15908594
-0.015569931 -0.16613808 0.015224935 0.03206629 0.18755656 -0.0027228517 -0.08630626 0.14193033
0.11755121 -0.11663862 0.061771426 0.022954756 -0.021329373 -0.04824869 0.034609128 0.113317385
0.08978429 0.13519311 -0.117656626 0.04389499 0.08956944 -0.002033798 -0.043592952 0.1334211
0.069855995 -0.03376445 0.068258695 0.1301966 -0.051845018 -0.079312444 -0.1979628 -0.073623896
-0.040562205 0.071942806 0.21403168 -0.122052535 -0.082405545 0.02242046 -0.06446247 -0.08380329
0.08529106 0.022448715 -0.17475672 -0.12022086 0.06524232 -0.18750702 0.07568599 0.17899472
0.10772206 0.06631973 0.13851546 -0.083506785 0.17676139 0.056975115 -0.07480677 -0.04216905
-0.15285304 0.048070878 0.00216915 0.00872153 0.21640955 0.02403929 -0.06771388 -0.12460914
0.11109323 -0.1580454 0.12069825 0.061181877 0.0911851 -0.14647344 -0.024855455 -0.059101
0.06950453 -0.014487803 0.060967382 0.1771929 0.09405892 0.30481842 0.0966537 -0.08749268
-0.14070372 0.0985583 0.06792303 -0.0746459 -0.047682162 0.10096609 -0.1267819 0.009369718
0.09408 0.05734987 -0.1291478 0.031170238 0.011301375 0.0893149 0.028120037 -0.041108534
-0.020603519 0.042685755 0.13788939 0.18720378 -0.078522936 -0.17026177 0.16668268 -0.06744395
